Simulation/reaching_gym/reaching_target.pth (torch, 547663 bytes, 8 tensors)

fc1.weight f4 [256, 13]
000000 b5 ef a1 3b d1 27 94 3e 10 3f 44 3c 63 ae 7e be
       0.0049419054 0.28936628 0.011977926 -0.24871211
000010 ee ed 05 bd 56 37 2a bc c5 f1 dd bd 19 47 2b 3c
       -0.03269761 -0.01038917 -0.108371295 0.010453963
000020 a4 48 04 3c 6d 30 8e bf 08 8c e5 be c3 be 74 3d
       0.0080739595 -1.1108528 -0.44833398 0.059752237
000030 ba 2a d4 be 7a 20 52 be 02 96 d1 bd 09 8c 3f 3d
       -0.41438848 -0.20520201 -0.1023369 0.046764407
000040 42 f9 d7 3d a8 53 77 3e 44 38 22 3e f0 52 12 bf
       0.10545589 0.24153006 0.15841776 -0.571578
000050 68 64 08 b9 f3 d2 ea 3c 52 fb b0 3e 06 c6 4e 3e
       -0.00013007375 0.028665042 0.34566742 0.20192727
000060 9b 08 4c 3d 36 d1 57 be 37 6b f3 3d 77 6d fa bd
       0.049812894 -0.21075901 0.11885684 -0.1222791
000070 d9 f3 ea bd 9f 16 ac bc ea 66 db 3d 8a ed 63 3d
       -0.114722915 -0.02100688 0.10712989 0.055646457
000080 05 64 d3 bd e7 91 22 3c 51 9d 47 3c c7 cf 2f be
       -0.103218116 0.009922481 0.012183503 -0.17169105
000090 07 2d a0 be 72 ef 6e bc da cb 14 3d 3d 7a 80 bd
       -0.31284353 -0.014583455 0.03632722 -0.06273315
0000a0 31 4f e0 3d c1 07 90 3d b0 07 de 3c 73 fd 41 3d
       0.109526046 0.07032729 0.027103275 0.04736085
0000b0 ce 48 55 be a5 ea d5 3d 9d 03 3c 3c 0b 7b c9 b8
       -0.20828554 0.104451455 0.011475471 -9.6073454e-05
0000c0 a3 d0 0f 3f db d4 02 3f 26 96 d2 be b3 ce 2e 3e
       0.5617773 0.5110604 -0.4113018 0.17071037
0000d0 12 51 40 3b 24 a7 71 be c1 6e c6 bd 85 2f 93 bb
       0.0029345197 -0.23598915 -0.096890934 -0.0044917488
0000e0 73 30 eb 3d fc ed ae bd d4 f1 20 be b8 54 9d 3b
       0.1148385 -0.08541486 -0.1571725 0.004801359
0000f0 2e b7 27 3b 53 a4 5e bf a0 a6 f4 bd d7 5a d3 bb
       0.0025591361 -0.8696949 -0.11945844 -0.006450038
000100 cb fd aa 3d 9f 41 89 3d b6 3d c2 3c 06 96 9d bc
       0.083491884 0.06701969 0.023711067 -0.019236576
000110 14 8c a2 bd 93 35 0d 3c 4b 4c 36 3e cb 18 cf 3e
       -0.07936874 0.00861873 0.17802541 0.40448603
000120 9d a3 1e ba 7c a8 a9 3b 70 96 dd 3e a8 3a 4e 3f
       -0.0006051602 0.0051775556 0.43278837 0.8055825
000130 16 93 f4 3e d5 18 8d 3d 16 f2 af 3d 41 54 16 3d
       0.47768468 0.06889502 0.08591096 0.036701445
000140 67 3e 99 bd 03 b8 db bd 41 a6 4b bd 2d 15 ea 3c
       -0.074826054 -0.10728457 -0.0497191 0.02857455
000150 3f f9 e6 3d 75 31 5c bb 29 1b 48 bc 97 e5 54 bf
       0.11278009 -0.0033598815 -0.012213507 -0.83162826
000160 30 fb af be ad c6 2d bf 51 c9 87 3f 33 8a 17 bd
       -0.34371328 -0.6788128 1.0608312 -0.03699703
000170 f3 cc f2 3d 51 98 d6 3c ea dd 81 be fb d6 83 bd
       0.11855497 0.026195677 -0.2536462 -0.06437489
000180 d0 4c 0b 3b 63 35 0e 3b f8 4f 35 3c 6f e3 05 3c
       0.00212555 0.0021699301 0.011066429 0.0081719
000190 d5 c3 f0 3d a9 a0 a4 3e e6 9b 35 bd 5e eb 26 bf
       0.11756102 0.32153824 -0.04433813 -0.6520289
0001a0 02 53 3c 3e 02 4e 97 3d 0a ac 05 3d 91 7a cb bc
       0.1839104 0.07387926 0.032634772 -0.024838718
0001b0 6a bc 5e be 83 76 00 bd 8c 83 ce 3e eb e4 e3 bb
       -0.21751562 -0.03136302 0.40334737 -0.0069547794
0001c0 9d 1f 49 bb d0 aa 34 3f 71 d0 64 3f 68 57 cc be
       -0.003068901 0.7057314 0.89380556 -0.39910436
0001d0 eb e4 6e 3d 4b 1e 82 bd a8 47 e9 3d f0 b1 8b 3d
       0.058323782 -0.06353434 0.113906205 0.06821048
0001e0 ff fa a4 3c f0 f6 41 be 15 a2 7b be 10 5c 5e 3e
       0.020139216 -0.18941855 -0.24573548 0.21714807
0001f0 62 21 db ba 65 da 1a bc d0 12 33 3e 6f 09 5d 3f
       -0.0016718323 -0.009451483 0.17487645 0.8634252
000200 12 4e 6c be 37 23 d6 be b0 f6 da bc d4 7e b8 3d
       -0.23076656 -0.41823742 -0.026728958 0.090085655
000210 fa f9 b7 bd 12 17 cb bd 07 69 d5 bd 5b 78 40 bd
       -0.08983226 -0.0991651 -0.10420423 -0.04698978
000220 e0 18 05 3e f7 9a 35 3c 65 18 42 bb 47 b0 26 3e
       0.1299777 0.01108431 -0.002961659 0.16278182
000230 a3 84 f5 be c5 17 21 3c 16 2d 1b 3f c9 35 d9 3e
       -0.47952756 0.009832327 0.6061567 0.42423847
000240 47 fc 77 bf 78 74 01 bf c5 48 5b bd 2c 17 83 3e
       -0.9686932 -0.5056834 -0.053536195 0.25603616
000250 3a 8a 07 bd dc be 50 3e 88 a3 09 bc 8b b8 f3 bb
       -0.033090807 0.20385307 -0.008400805 -0.0074377707
000260 45 aa 91 be 59 1e f5 be ba f0 ee bd d2 2d ac ba
       -0.28450218 -0.47874716 -0.11667009 -0.0013136214
000270 c9 52 29 3e 71 6b 71 bc f4 28 a0 3c 02 5b 04 3d
       0.16535486 -0.014735089 0.019550778 0.032313354
000280 67 d6 4f 3d d4 a6 e9 bd 08 e0 93 bd c4 ab 49 bc
       0.05074158 -0.11408773 -0.07220465 -0.0123090185
000290 71 93 98 3c fa de 0a 3e b3 ef 99 3d ef d7 ea 3e
       0.018624993 0.13561621 0.07516422 0.4586787
0002a0 16 d4 2a bf 77 2e db 3c 6a 40 35 3e 3b f9 7f be
       -0.6672987 0.026755555 0.17700353 -0.24997418
0002b0 8b 42 20 3c f0 7f 64 3c 88 b7 c9 bc 7d 7e b5 3c
       0.00978149 0.013946518 -0.024623647 0.02215504
0002c0 ae ea b5 3b 54 b2 03 3d de 9d ca be 7b 64 ea 3e
       0.0055516576 0.03215249 -0.39573568 0.45779786
0002d0 46 a5 b3 bd a2 b9 25 be 0c 9f 56 3c cb e6 8f 3c
       -0.08771758 -0.16184095 0.013099443 0.017566105
0002e0 93 e3 c8 3d e7 ae 1c 3d 9b 31 5b 3e 57 6b 05 3d
       0.09809031 0.038252737 0.21405642 0.03257307
0002f0 64 61 ce 3e 3f 0c 12 bc 70 be f5 bb f2 5c 3a 3f
       0.40308678 -0.0089140525 -0.0074995086 0.72798073
000300 ce 50 88 3f 6e 4d 16 be e6 9e 82 be 90 63 03 3e
       1.064966 -0.14677975 -0.25511855 0.12830949
000310 2c 3b 01 be 75 2e f7 bd 3b 64 a9 bd 60 a7 ba 3d
       -0.12620229 -0.12069408 -0.082710706 0.091139555
000320 e2 99 13 3d cd 5a 14 3d cd 64 e1 39 f5 32 09 3b
       0.036035426 0.036219407 0.00042990447 0.0020934914
000330 fb 36 1c bd 8f 2b 90 be b3 f9 0b 3f 2b 48 6a 3f
       -0.03813837 -0.28158233 0.54677886 0.9151637
000340 f0 ca 44 3e ee a2 1d 3e 46 84 e8 3d 70 46 01 3d
       0.1921804 0.15394184 0.11353354 0.031561315
000350 00 df 68 be 81 18 87 3e 61 89 28 3e a7 fe 8d bb
       -0.22741318 0.26385882 0.16458656 -0.0043333354
000360 1a 7c 4f bc 2b 72 9d bf b3 31 b6 3e 70 c6 52 bf
       -0.012663865 -1.2300466 0.35584792 -0.8233404
000370 f3 44 e8 bd 59 52 4d 3d ee 7c 5e 3c 33 d7 71 bd
       -0.11341276 0.05012736 0.01357959 -0.05904312
000380 8a d4 b1 bc 50 20 93 bd 47 7e 63 3c 5d 45 91 3d
       -0.021707792 -0.071838975 0.013885087 0.07093308
000390 02 eb ae bb 42 10 24 bc 0c 21 35 be 0e bb 9b 3d
       -0.0053380737 -0.010013642 -0.17688388 0.07604037
0003a0 89 93 db be 24 91 6b bb 07 74 53 be 45 11 29 bd
       -0.42885998 -0.0035944665 -0.2064973 -0.041276235
0003b0 8a e3 45 3c fb ac 07 3d 0f 76 a1 bd 2c 28 f7 3d
       0.012078175 0.03312395 -0.07883846 0.12068209
0003c0 0b 36 1e 3e 40 dd bb 3a 03 e3 c7 bb 6a 55 7a 3e
       0.15450303 0.0014332905 -0.00610006 0.24446645
0003d0 1e b4 59 3e c1 be 8d be 3a 64 ff be 76 7b 56 be
       0.21260116 -0.27684596 -0.49881154 -0.20945534
0003e0 50 c8 28 3d d1 e3 09 be 6f fd 0a be 8d 55 be be
       0.041206658 -0.13465811 -0.1357324 -0.37174645
0003f0 b4 a2 ba bd a1 79 bd 3e 92 63 0c 3b 68 00 ce 39
       -0.091130644 0.37006858 0.0021421653 0.00039291685

fc1.bias f4 [256]
000000 63 b3 be be f3 db f8 be 20 92 0e 3e d4 9b 6e bf
       -0.37246236 -0.48605308 0.1392293 -0.93206525
000010 be e2 ce 3e c6 7d fd bf ad cf cd be 54 c1 a4 bd
       0.40407366 -1.9804008 -0.40197507 -0.08044687
000020 a5 ee 0e c0 9d af 85 bf f1 a2 20 3e 72 3c 9b bf
       -2.2333157 -1.0444218 0.15687157 -1.2127821
000030 e3 a7 17 bf 9a 3f 8f be 74 99 0a c0 3c af fa bc
       -0.5924055 -0.27978212 -2.165616 -0.030601136
000040 69 43 2a bf a6 95 5f 3e 29 b0 e3 3e 08 b9 10 bf
       -0.6650911 0.2183443 0.44470337 -0.56532335
000050 e8 9d 2b c0 58 f3 e8 bf 8f aa a3 be c8 05 2b bf
       -2.6815128 -1.8199263 -0.31966063 -0.66805696
000060 b8 88 cc bf 38 2e f9 3d d7 ad 9b bf b4 79 18 bf
       -1.5979223 0.12167019 -1.2162427 -0.59560704
000070 7b 84 33 bf c6 bb 6e bf 83 12 8b bf dd 53 55 bf
       -0.70124024 -0.9325527 -1.0865024 -0.8333109
000080 be d4 0b c0 c1 79 93 bf 54 38 0e c0 b7 5e 74 bf
       -2.1848598 -1.1521531 -2.222188 -0.95457023
000090 ca 4b 08 bf 84 1e c9 bf 15 ea cb be 5a eb 0e c0
       -0.53240645 -1.5712438 -0.39827028 -2.2331147
0000a0 7c e7 0c bf 76 9c d9 be 2f ab c4 bf e9 34 9d 3e
       -0.5504072 -0.42502183 -1.5364741 0.3070443
0000b0 6f 7d 13 c0 82 2c b3 3e 8f 9d ce be 17 ba da bf
       -2.3045309 0.34994894 -0.40354583 -1.708804
0000c0 f6 2f cb bf 65 6c 2e bd 32 f4 0a bf 48 7c 2b bf
       -1.5874012 -0.04258384 -0.5427886 -0.66986513
0000d0 d9 5a e2 3d 19 f4 f3 bf aa b0 35 bf 8c 3b 9f bf
       0.11052484 -1.9058868 -0.7097269 -1.2440047
0000e0 c5 dc 02 c0 9a 44 95 3c 52 2d 2f bf f7 2e a9 be
       -2.0447247 0.018221188 -0.6842853 -0.33043644
0000f0 36 6b 06 3e 15 6d d7 3e 87 9e 5e bf 5d 79 c9 3d
       0.13126835 0.4207541 -0.86960644 0.09837601
000100 93 a5 b3 bd 81 d1 ab bf a2 cc 47 bf 00 04 5e be
       -0.08771815 -1.342331 -0.7804662 -0.21681213
000110 2b 35 fb bf ca 7d 1a bf 5e 10 bc bf 28 3e e6 be
       -1.96256 -0.6034819 -1.4692495 -0.44969296
000120 2b f3 9d bf c0 be 9f be 96 64 5a be b1 ce 65 bf
       -1.2339834 -0.31200218 -0.21327433 -0.8976851
000130 1d b1 0a c0 43 25 49 bf cc 6e f6 bf dd 5c b5 3e
       -2.1670601 -0.7857248 -1.9252563 0.35422412
000140 31 62 1a bf f5 ef 02 c0 6f 28 25 bf 7e ca f3 bf
       -0.6030608 -2.0458958 -0.6451482 -1.9046171
000150 92 2b a5 be 85 71 8c bf 76 f5 a1 bf 45 af 88 bf
       -0.32259804 -1.0972143 -1.2653034 -1.0678488
000160 76 43 80 bf f6 af 7d bf 4e 80 1c bf cd db 43 bf
       -1.0020587 -0.9909662 -0.6113328 -0.76507264
000170 b7 d2 37 bf 0e 72 1a be b9 8f 01 bf b6 ab c7 bf
       -0.718059 -0.15082571 -0.5060993 -1.5599277
000180 bc 25 4a bf 63 fb cb bf 6f cf d9 bf 50 4a 52 bf
       -0.7896383 -1.5936092 -1.7016429 -0.8214464
000190 64 f4 cc bf fb e4 44 bf 78 bb 73 bf 2e 51 1e bf
       -1.6012082 -0.76911896 -0.9520793 -0.6184262
0001a0 6f 4e a1 bf 82 f5 32 bf 84 09 b6 bf 3e 87 5f 3c
       -1.2602061 -0.69905865 -1.4221654 0.013643084
0001b0 7e d6 66 bf 3b 1e 31 c0 d4 2d a3 bf 57 1b c5 bf
       -0.9017104 -2.7674701 -1.2748361 -1.5398968
0001c0 15 11 6a bf d0 00 28 bf fa 41 c6 bf ce ee fd bc
       -0.91432315 -0.6562624 -1.5488884 -0.03099766
0001d0 0c ac 93 bb 7a 99 da be 37 6b b4 3e 0d 5b 86 bf
       -0.0045065936 -0.42695218 0.35238048 -1.0496536
0001e0 76 50 a2 be d7 cb c6 be b5 21 c6 bf 53 6d 94 bf
       -0.31702012 -0.38827392 -1.5479037 -1.1595863
0001f0 f5 54 a0 be d5 e3 99 be d7 6e 08 bf c6 cb 8a 3e
       -0.31314817 -0.30056635 -0.5329413 0.27108592
000200 9a e8 9a be c7 d5 2c 3e 98 4e a7 be 09 19 3e bf
       -0.30255586 0.16878425 -0.3267715 -0.7425695
000210 26 6c c0 be 62 bb 49 3f d3 2e a4 bf 65 d4 9e be
       -0.3758251 0.7880155 -1.282679 -0.3102142
000220 11 1c 83 be aa ba 0c bf 1b de be be 8d 39 bc bf
       -0.2560735 -0.54972327 -0.37278828 -1.4705063
000230 4f 2a a3 bf 8a 78 2a 3f 5a 93 85 bf d1 f1 a3 bf
       -1.2747287 0.6659018 -1.0435593 -1.2808172
000240 49 75 ae bf b1 68 bd be 24 61 ca bf a3 8d 28 c0
       -1.3629543 -0.36993936 -1.5810895 -2.6336448
000250 27 6c a6 3e a1 06 46 bf 59 c1 f1 be c6 04 b7 bd
       0.3250439 -0.77353865 -0.47217825 -0.08936457
000260 9e 45 d7 be b6 16 23 3f 79 ad ad be 74 04 9f bf
       -0.420453 0.6370653 -0.33921412 -1.2423234
000270 e4 9b 25 bf 4c 2a 00 c0 f8 a9 fb bf 84 7f c0 bf
       -0.64690995 -2.0025816 -1.9661245 -1.5038915
000280 5f e3 49 bf 7e 63 f8 be e6 63 cb bf b2 8b b1 bf
       -0.78862566 -0.48513407 -1.5889862 -1.3870757
000290 de 55 48 bf 95 bf 5c bf 45 14 9a 3e 6a 2a 3c bf
       -0.7825602 -0.8622983 0.3009359 -0.7350222
0002a0 c1 b7 8b be 43 d2 e2 bf 7b 6e ce bd 03 dc 75 bf
       -0.2728863 -1.7720417 -0.10079666 -0.96038836
0002b0 72 7a 9f bf 77 e8 b9 bf 95 8b b1 3e 5e 1b bf bf
       -1.2459242 -1.4524068 0.34676805 -1.4930227
0002c0 ff 79 57 bf 12 7f 80 3e 47 9b a5 bf 2f 4d 59 3f
       -0.84170526 0.25096947 -1.2938012 0.848834
0002d0 42 f8 f1 be 9e 6d d4 bf 34 04 a5 bf ed f8 9c bf
       -0.47259718 -1.6595953 -1.2891908 -1.2263466
0002e0 db 4c 86 bf bf f2 61 bf 78 3e 85 bf c6 58 f4 bf
       -1.0492204 -0.88261026 -1.0409689 -1.9089592
0002f0 21 82 8d bf 00 d6 4e 3d fe 87 83 bf 88 02 0e 3f
       -1.1055337 0.050497055 -1.0275877 0.5547261
000300 db fc ea bd fd 5e 6b be 95 82 bd be 00 7d 69 bf
       -0.114740096 -0.22985454 -0.3701369 -0.9120636
000310 67 7e 2f 3f d4 76 0d be 38 7c 6f 3e 59 21 b0 bf
       0.6855225 -0.1381486 0.2338723 -1.3760177
000320 e7 a2 3f bf 2e 4a cf bf c1 b3 0d be 81 05 62 bf
       -0.74857944 -1.6194513 -0.13838102 -0.8828965
000330 56 ac 4d bf 84 56 2e 3c 37 0d 9d bf d8 b0 bc bf
       -0.8034109 0.010640744 -1.2269658 -1.4741468
000340 20 db 2b bf 90 74 43 be d7 50 02 bf 40 58 14 bf
       -0.67131233 -0.19087434 -0.509046 -0.5794716
000350 f5 18 1c be 77 62 eb be 21 a8 bb bf f3 83 b9 bf
       -0.15243895 -0.4597356 -1.4660684 -1.4493393
000360 69 6c a9 bf ce 84 c7 bd b0 d7 1c c0 c8 22 2f be
       -1.3236209 -0.09742127 -2.4506645 -0.17103112
000370 85 86 1d c0 24 88 f5 3d 0d a6 7c 3d e2 0f 87 bf
       -2.4613354 0.119888574 0.061681796 -1.0551722
000380 5d 2a 17 3d ad 06 e6 be 9e 60 10 c0 14 32 f8 bf
       0.036905635 -0.44926968 -2.255897 -1.9390283
000390 a2 b8 41 bf 43 b1 2b 3e 41 2b 98 be 0a 05 91 3e
       -0.7567235 0.16766839 -0.297205 0.28324157
0003a0 bc b5 93 bf 03 52 33 c0 b1 89 2a bd 4d 53 aa bf
       -1.1539836 -2.8018806 -0.04163522 -1.3306671
0003b0 f2 76 76 bf 51 ea 10 c0 b7 75 3f bf b3 ba 83 bf
       -0.96275246 -2.2643015 -0.74788994 -1.0291351
0003c0 67 19 97 bf 24 16 cc bf f6 04 9c bf 14 db 06 bf
       -1.1804627 -1.5944257 -1.2189014 -0.52678037
0003d0 d7 6e 7c bd 0b 48 6b bf 03 d8 14 bf 02 7e bd 3e
       -0.061629143 -0.91906804 -0.5814211 0.370102
0003e0 14 96 d6 be f1 50 ea be 6f 9e 02 c0 0d 32 c1 bf
       -0.41911376 -0.45764878 -2.04092 -1.5093399
0003f0 cb 5e 8c be 71 63 11 bf ab c9 70 bf 93 3f 9c be
       -0.2741607 -0.5679236 -0.9405772 -0.30517253

fc2.weight f4 [256, 256]
000000 71 73 78 be 0e c1 a1 3c 80 ff 81 bf db ac 9d 3f
       -0.24262787 0.019745376 -1.0156097 1.2318376
000010 81 f7 79 be 6c 81 2e 3f 64 c3 1f be ab c5 f6 3e
       -0.24410821 0.6816623 -0.1560188 0.48197684
000020 86 c8 64 bf 4e 7c 39 bf 8c 4b 10 be ce 9a aa 3d
       -0.89368474 -0.724553 -0.14091319 0.08330308
000030 da b5 48 bf 55 c4 57 3c e9 26 c2 be 0d 2b 6e be
       -0.78402483 0.013169368 -0.3792031 -0.2325861
000040 cd 46 6b 3f 55 e1 1a be 03 43 db be 0d 76 97 be
       0.9190491 -0.1512502 -0.42824563 -0.29582253
000050 b7 10 61 3f 9d 26 b1 bd b0 6f a8 3e a2 05 15 3f
       0.8791613 -0.08649943 0.3289771 0.5821172
000060 d5 d1 63 3f 36 dd 9f be 3d ca e1 bf 2b ac 46 bf
       0.88992053 -0.31223458 -1.7639843 -0.7760646
000070 d2 af a3 bf 3f 12 53 c0 e9 ef ac be d9 74 55 bf
       -1.2788031 -3.2979887 -0.33776787 -0.8338142
000080 e7 b1 6c 3f 25 f0 d8 bd 65 26 cb bd 11 b6 fb 3c
       0.9245896 -0.10592679 -0.099194326 0.030726464
000090 f0 f1 37 bf c7 79 65 be cb c4 f4 3e 49 41 82 be
       -0.7185354 -0.22409736 0.4780639 -0.25440434
0000a0 ba 66 02 bf 72 38 99 be 7e 15 1d 3d cf 83 ef 3e
       -0.50938 -0.29925877 0.038350575 0.4678025
0000b0 8b d7 d1 3e 25 7a 2b be b2 ee 03 bf a8 25 55 bf
       0.4098476 -0.16745813 -0.51536095 -0.83260584
0000c0 db c4 1a 3e 2e 76 01 be 98 c6 95 be 42 b6 73 bd
       0.15114157 -0.12642738 -0.29253078 -0.059499986
0000d0 f8 0a 30 3f 2b cd 02 bf 22 b6 9f bf 66 d1 99 be
       0.68766737 -0.5109431 -1.2477458 -0.3004257
0000e0 40 4e 02 3e d8 26 64 3e 2a 38 2a bf 0e e2 73 bf
       0.12725163 0.22280443 -0.6649195 -0.9526681
0000f0 6b 49 0a 3f 20 52 91 3d fb 94 19 3f 69 fa 5a bf
       0.54018277 0.07095742 0.5999295 -0.85538346
000100 c4 64 e4 3e e3 dc 3e bf 6a 64 30 3e 60 6c 84 3e
       0.44608128 -0.74555796 0.17225805 0.25863934
000110 21 2c 6d 3f c3 79 2c 3f 68 b0 d1 3f f9 fc d1 3e
       0.9264546 0.67373294 1.638196 0.41013315
000120 4e 5d 15 bf 31 d3 41 be e8 8d 41 bf af 34 f8 3e
       -0.58345497 -0.1892822 -0.75607157 0.48477694
000130 80 53 90 be f1 d8 02 bf 51 7a 00 c0 20 97 02 be
       -0.28188705 -0.51112276 -2.0074656 -0.12752962
000140 9f 88 52 be 60 0c fd bf ed 5b d0 bf 35 30 40 3e
       -0.2055993 -1.9769402 -1.6278054 0.1876839
000150 d6 a0 95 bd ea 37 e2 bc ce 90 54 be b9 ef 18 c0
       -0.07306068 -0.027614553 -0.20758364 -2.3896315
000160 08 5c 09 c0 75 fd ad bf f9 ee 41 be e0 8f c7 3d
       -2.1462421 -1.3592974 -0.18938817 0.09744239
000170 de fe b0 3e 9f 05 ab 3e 85 8f 3f 3f e0 9f 1d 3f
       0.34569448 0.33402726 0.7482837 0.61572075
000180 81 71 15 be eb b9 da bf 21 75 e4 bf 7e b4 05 bf
       -0.1459408 -1.7087988 -1.7848245 -0.52228534
000190 48 74 61 be 93 5d f2 bf 2a e5 b2 3e 2a 3c 69 bf
       -0.22017014 -1.8934807 0.34940463 -0.9110743
0001a0 c6 e5 0f bf 01 25 b9 be 0d 4a 96 be a8 80 36 3f
       -0.5620998 -0.36161044 -0.2935337 0.71290064
0001b0 12 57 20 bf 51 2f 8f be fe 9c 9f 3e 9b d9 45 be
       -0.6263286 -0.27965787 0.31174463 -0.19321291
0001c0 51 6d 2f 3e 95 e4 70 bf d4 ea 6c 3d 38 51 9d be
       0.17131545 -0.9409879 0.057841137 -0.30726027
0001d0 0f e0 cf bd 91 be 46 3d 24 a9 15 bf 1f 3b b2 bf
       -0.10150158 0.048521582 -0.58461213 -1.3924292
0001e0 23 6b cc 3e 9d d4 9f bf 6e 45 63 bf 02 1d ba be
       0.3992549 -1.248676 -0.88777816 -0.36350256
0001f0 35 1c 56 3d fb 16 a7 bf c2 71 bf bf 9a 47 71 3e
       0.052272994 -1.3053888 -1.4956591 0.2356247
000200 54 d5 da 3e ed 83 5b bc 53 73 80 3f 90 dd 93 bf
       0.4274088 -0.013398153 1.0035194 -1.155199
000210 37 a6 31 bf 1d 2f cc bd 09 f1 15 bf 4d a8 42 3f
       -0.6939425 -0.09969924 -0.58570915 0.76038057
000220 12 a5 d8 bf 41 6f 7f 3e a6 1b cd 3d 88 68 53 bf
       -1.6925375 0.24944784 0.10015039 -0.8258138
000230 4c db 8c bf 83 86 cc be 23 52 12 c0 c8 7e 24 3d
       -1.1004424 -0.39946374 -2.2862632 0.04015997
000240 57 2a 98 bf 38 b5 3b be 42 8e 1c 3e cb 6b 2e 3e
       -1.1887921 -0.18330848 0.15288642 0.17033307
000250 50 73 1e 3e d9 8f 4b bf 34 5f 0f 3f bb 5a 9b 3e
       0.15473676 -0.7951637 0.56004643 0.3034266
000260 8d 07 ee 3d 5f af 27 3e c9 e9 ca 3d 07 84 e0 3e
       0.11622534 0.16375493 0.09907872 0.4385073
000270 e1 b8 76 bf c2 28 99 3f 4f 2f 87 3e 9a 00 ff be
       -0.9637585 1.1965563 0.2640328 -0.49805146
000280 0a 15 0c bf 0f 81 89 be 2f 74 5a 3d 03 3c e2 be
       -0.54719603 -0.26856276 0.053333458 -0.4418641
000290 27 fd 91 3f 06 22 7a bf 5f a7 0c 3f 5a 76 8d be
       1.1405381 -0.97708166 0.5494289 -0.27629358
0002a0 a6 0c 94 bf 50 04 52 3e fb e0 02 bf a7 4b 93 3f
       -1.156636 0.20509458 -0.5112454 1.1507462
0002b0 f8 43 26 bc 2c 26 12 3d ed b7 6d be 17 e6 3a 3e
       -0.010148041 0.035680935 -0.23214693 0.18251835
0002c0 2f d9 50 be b5 2e 3b 3e 5f 6d 92 3d 01 06 1a be
       -0.20395349 0.18279536 0.07149767 -0.15041353
0002d0 0a e9 42 be a1 a7 96 3e 65 a0 63 be 33 11 3f 3f
       -0.1903421 0.29424766 -0.22229154 0.7463562
0002e0 50 2c 8a bf 4c a5 3d bf c2 91 16 3f 5b 17 8d 3f
       -1.0794773 -0.7408035 0.5881616 1.1022753
0002f0 14 45 20 be 7a 6d 1f be 02 d6 b1 be bc f4 1d 3e
       -0.15651351 -0.15569106 -0.34733588 0.1542539
000300 bb ae 6e be 2f b0 a3 be 6c b9 c4 3e bb 1b fc be
       -0.23308842 -0.31970355 0.38422716 -0.49239907
000310 62 84 c3 3d 0c 81 6a 3e c1 7f de 3d 2c 7b c0 3e
       0.095467344 0.2290079 0.10864211 0.37593973
000320 09 10 53 bf ad 0e 32 bf b8 ed d8 3d f9 24 91 3e
       -0.8244634 -0.69553643 0.10592216 0.2834852
000330 c2 c2 6f bf c6 6e 1e be 31 e4 5f 3e f0 87 04 3f
       -0.9365655 -0.15471944 0.21864392 0.51769924
000340 04 9e 2f bf 5c 4e b3 bf 7e 9a 00 3f 6e b2 a6 3e
       -0.6860049 -1.4008288 0.50235736 0.32558006
000350 51 2f a5 be 94 d7 31 bf c0 c6 0c bf 35 7c ba bf
       -0.32262662 -0.6946957 -0.5499077 -1.4569155
000360 25 e5 f5 3e 0b bc 5c 3e 48 a0 82 bf bd 6b 05 3f
       0.48026386 0.21556108 -1.0205164 0.5211752
000370 d4 43 6a 3f 98 e3 94 3e c2 da 46 bf ab 0a ed be
       0.9150975 0.2907989 -0.7767755 -0.46297202
000380 76 cf e0 3d 71 91 13 bf ea 76 0f bd 96 c8 94 bf
       0.1097707 -0.576438 -0.035025515 -1.1623714
000390 c2 f5 78 be b3 7b 3b be 5c db 71 bf d7 a5 5b bf
       -0.24312499 -0.18308906 -0.9447534 -0.85799927
0003a0 26 33 69 3f 11 03 9f be 2c fa 2b 3f b9 0a 34 3f
       0.9109367 -0.31057027 0.67178607 0.7032886
0003b0 76 d1 db be d7 e6 4b 3f 07 e7 2a be 75 14 05 3f
       -0.42933244 0.7964911 -0.16689692 0.5198434
0003c0 94 d9 b8 be b5 f6 e7 3e 06 11 4f bf da 18 11 3f
       -0.361035 0.4530541 -0.8088535 0.56678545
0003d0 fc 0e 07 bf fc a7 b0 3b 04 e6 8d bd 35 d9 41 3d
       -0.5275724 0.005391119 -0.069286376 0.047326285
0003e0 47 da 98 bd 03 42 fb 3e eb f3 f7 bb 40 12 98 be
       -0.07463508 0.490738 -0.007566919 -0.29701424
0003f0 c1 11 17 bf e9 e9 1e c0 ad 15 18 c0 61 e7 3a 3f
       -0.59011465 -2.4830267 -2.376323 0.73009306

fc2.bias f4 [256]
000000 d5 b1 2e 3e 33 99 3b bd df 46 93 be 62 8f 98 be
       0.17060025 -0.0458004 -0.28765008 -0.29796892
000010 20 e6 39 be 85 1c b7 bd 7f dd fd 3d f6 e5 15 bd
       -0.18154192 -0.089409865 0.12395763 -0.03659626
000020 99 43 08 3d c8 c0 68 3e f2 57 22 3d 04 e9 b8 3e
       0.03326759 0.2272979 0.039634652 0.36115277
000030 92 07 09 be d0 09 d9 3e 1c 5c 16 be 3b 03 33 3f
       -0.13381794 0.423903 -0.14683574 0.69926804
000040 96 21 84 bd c1 4c 51 be ee 07 a1 bd ab a6 8f bd
       -0.064517185 -0.20439436 -0.078628406 -0.07014211
000050 92 ee 75 bf 9d f7 19 bf 64 9a b4 bd 12 1e 59 3e
       -0.96067154 -0.6014345 -0.0881851 0.21202877
000060 9d 53 50 bd 27 2c 0f be bf 33 f5 3e a0 f3 02 bf
       -0.05086099 -0.13981687 0.47891042 -0.5115299
000070 b2 c3 22 3e b1 60 d5 3d d6 bd ae be 68 3f f6 be
       0.15894964 0.10418833 -0.34129208 -0.4809525
000080 25 10 62 3d 7d dc 5f bf cb f1 bd 3b 4f 6d 13 be
       0.055191178 -0.87445813 0.0057966462 -0.14397167
000090 50 04 aa be 5e c8 10 bd 51 6e ec 3e 11 70 d8 3e
       -0.33206415 -0.035347335 0.46177915 0.42273
0000a0 f5 37 40 3d 5e 55 4a bf 5a 38 92 be 30 e2 4d bd
       0.046928365 -0.7903651 -0.28558618 -0.050264537
0000b0 03 38 7a 3f 33 d4 1b be da f9 b4 be 91 14 ab be
       0.9774172 -0.15217666 -0.35346872 -0.33414128
0000c0 8a 7d ca bc f4 72 8b 3d 8e 5d ba bd be 27 58 bf
       -0.024718065 0.06809035 -0.090998754 -0.8443564
0000d0 42 83 2d 3d e8 69 64 be c5 35 09 3f ad af 86 3b
       0.042361505 -0.22306025 0.5359767 0.0041102977
0000e0 35 c5 74 be b1 06 42 be e5 a2 36 3d 1d 8a 1d be
       -0.23903354 -0.18947865 0.044588942 -0.15384717
0000f0 d8 87 fc be 22 ef 83 be 43 d7 93 3e a7 53 8f 3e
       -0.4932239 -0.2576838 0.2887517 0.2799351
000100 c1 0f 33 be 61 45 44 3e ee 64 92 be e3 36 e7 be
       -0.17486478 0.19167091 -0.28592628 -0.45159063
000110 f3 cb ed be cb b7 9d be ef 02 e0 3c 7c b0 10 bd
       -0.46444663 -0.30804285 0.027345149 -0.03532456
000120 ad 30 8f be c4 15 e0 be 68 19 44 3d 99 78 76 bf
       -0.27966824 -0.43766606 0.04787579 -0.9627777
000130 e6 4d 67 be 90 22 cf 3e 25 cc 8f be 22 01 48 bd
       -0.2258831 0.40456057 -0.28085437 -0.048829205
000140 31 a0 11 bf 26 6b 6d 3e 3c 95 18 be 53 24 0d be
       -0.5688506 0.23185405 -0.14900678 -0.13783388
000150 0d ea ed 3d 5e ab c9 be 47 d0 76 be b9 23 dc bc
       0.11616907 -0.39388555 -0.24102889 -0.026872503
000160 01 f0 98 be 13 c2 d2 3e 00 6f 9c 3e 57 1b e1 be
       -0.29870608 0.41163692 0.30553436 -0.4396617
000170 a5 b7 37 bf 9a 06 66 bd a6 18 4b 3d 66 3c 2c bc
       -0.71764594 -0.05615864 0.049584053 -0.010512447
000180 08 f4 ee 3e de 00 f8 3b ca 51 d5 3d bd 2e cb 3e
       0.46670556 0.0075684628 0.10415991 0.39684096
000190 33 37 7e be 79 3b a4 3b 91 13 c9 be 54 7e e0 be
       -0.24825744 0.0050119725 -0.3927274 -0.4384638
0001a0 6c ad cb be 2d 13 c8 be ff 9a 1c 3e ea 3a 66 bf
       -0.39780748 -0.3907713 0.15293501 -0.89933646
0001b0 55 49 cf 3e e0 17 49 bd 80 7d 34 3d ba eb a5 be
       0.40485635 -0.049095035 0.044065 -0.32406408
0001c0 04 fa 79 3f b4 01 d6 3e 86 c7 2a 3e 3e 35 c7 bd
       0.9764712 0.41798174 0.16677675 -0.09726952
0001d0 d7 24 d5 3e 79 e4 44 bd db 22 02 bf e9 50 05 3f
       0.4162967 -0.04806945 -0.50834435 0.52076584
0001e0 ae 75 8b bd dd 9c 6c 3e 4d e9 50 bc 26 5c 57 bd
       -0.06809555 0.23106714 -0.012750936 -0.052578114
0001f0 6d b3 da bd 0a 63 b6 3d 76 ca 7e 3e 45 31 6c bd
       -0.10678754 0.08905609 0.2488192 -0.057664175
000200 74 2d 22 bd 33 5b db be dd 86 10 3d 24 14 22 bd
       -0.03959413 -0.42843017 0.035284866 -0.03956999
000210 39 eb d4 3e 7d 66 24 3e 3e 57 82 bd 29 72 f8 bb
       0.4158571 0.16054721 -0.063642964 -0.0075819683
000220 cb 91 5a 3e f6 5b 2a 3e cf f2 b5 bc 40 76 50 bc
       0.21344678 0.16636643 -0.022210507 -0.0127235055
000230 cf 9b b0 bc 62 8f 93 bd c1 b9 eb 3a 14 a5 94 be
       -0.02155867 -0.072050825 0.0017984436 -0.29032195
000240 64 84 9e be 30 cc aa 3e af bb 8a 3e d5 d6 90 bf
       -0.3096038 0.33358908 0.27096316 -1.1315562
000250 62 ca bf 3d a5 1a 29 bf cf 1c 9f be cb 5b 44 3e
       0.09364773 -0.6605628 -0.31076667 0.19175641
000260 6a cb 00 bf d1 d4 49 3e 00 4f 20 be 2b 16 71 bf
       -0.50310385 0.1971009 -0.15655136 -0.9417445
000270 c9 85 46 be 82 ad 49 be f0 ae 35 bb c2 a9 7d bf
       -0.19386972 -0.19695094 -0.002772268 -0.99087155
000280 4b 41 6c bd 6f d1 2e bd 8b 78 23 bf a7 17 af 3e
       -0.057679456 -0.0426802 -0.6385581 0.34197733
000290 c5 c3 c5 bd 5f aa fc 3e 27 45 85 3e 74 25 58 be
       -0.09656481 0.49348733 0.26029322 -0.21108037
0002a0 0c ca 58 bf 57 6f 36 bf f7 8e d9 bc 24 22 6b bd
       -0.846833 -0.7126364 -0.026557429 -0.057405606
0002b0 15 c8 16 bc 5d 2d d8 be 70 77 6f bf 45 53 36 bd
       -0.009202977 -0.4222211 -0.9354162 -0.044513006
0002c0 3e 19 74 3e 15 a5 ae be 05 65 98 3d e8 40 03 be
       0.23837754 -0.34110323 0.07441143 -0.12817729
0002d0 0a 60 12 3f e5 9a 68 bb eb 7f 0b bf 48 28 9a 3e
       0.57177794 -0.0035492715 -0.5449206 0.30108857
0002e0 64 75 00 bf a0 c3 12 be ad ff 3e bd 1e f6 a5 be
       -0.50179124 -0.14332438 -0.04663055 -0.32414335
0002f0 6b d8 85 bd 39 6c 98 bd 91 ae 5b bf 83 95 49 3e
       -0.06535419 -0.07442517 -0.8581324 0.1968594
000300 29 90 43 bf fc 9b bc be ba 07 09 be 98 67 97 be
       -0.76391846 -0.36837757 -0.13381854 -0.29571223
000310 e7 bf 81 be ad e5 fe be e9 24 61 bd 59 bc 9d bd
       -0.25341722 -0.49784604 -0.05496684 -0.0770194
000320 d1 d6 da 3d d7 ca 55 3f e9 a2 99 3e 3d d2 24 bf
       0.10685504 0.83512634 0.30007103 -0.643833
000330 b0 10 16 be e9 7a ec 3d cc 7a 33 3f 5c 8e c6 bd
       -0.14654803 0.11546881 0.7010925 -0.09695122
000340 5f 4c 9f 3f 45 5f 36 3e a3 86 c1 bd b8 28 25 bf
       1.2445182 0.1780978 -0.09449508 -0.64515257
000350 d7 9c af bd 35 17 7c 3e fc bc 9f be 51 35 93 be
       -0.08574837 0.24618228 -0.3119887 -0.28751615
000360 f7 35 61 bf 81 3d 94 be fc e6 1b 3d bf 03 56 be
       -0.8797297 -0.28953174 0.03806208 -0.20899867
000370 e0 d5 34 bf 95 29 f0 be cb ac c5 be 90 68 5d 3d
       -0.7063885 -0.46906725 -0.38608393 0.054054797
000380 cf 71 8d bd 23 1d 6a bf 9a a9 91 be 7c eb 4e bd
       -0.06906473 -0.9145071 -0.28449708 -0.050517544
000390 9f 1f ab 3f 55 07 e6 be 7b ee 82 bf c6 74 24 3f
       1.3369025 -0.4492747 -1.0229028 0.6424068
0003a0 37 c4 8d 3d 72 0c 0a 3e c1 40 c1 be 13 c1 0c bf
       0.06922191 0.1348131 -0.37744716 -0.5498211
0003b0 f6 ff d1 3e 52 a9 fa bc 59 87 0f be ef 28 ff bd
       0.41015595 -0.030598316 -0.14016475 -0.12458979
0003c0 0c 1c 00 3e d1 30 f1 3e 66 48 b1 bd 09 65 96 bd
       0.12510699 0.47107556 -0.08656387 -0.0734349
0003d0 4c 52 a0 3e 06 6d 80 3a 30 d7 9e 39 95 32 03 bf
       0.31312788 0.0009798117 0.00030296436 -0.5124906
0003e0 d3 fa 2d be be 3b 94 be 2d f0 ac be 84 08 fd 3e
       -0.16990213 -0.2895183 -0.3377699 0.4942056
0003f0 ef 07 d9 bd 3b 02 8a 3e fc ac da 3d c2 54 ac be
       -0.10597216 0.26954827 0.106775254 -0.33658415

fc3.weight f4 [256, 256]
000000 e7 9e eb be 1f ca 15 bf 91 0e 70 be 9a 08 0c 3e
       -0.4601967 -0.5851154 -0.23443057 0.13675156
000010 10 63 0a bf a5 a4 dd be f8 75 85 be 8a 39 c2 ba
       -0.5405741 -0.43289676 -0.26066566 -0.0014818173
000020 a2 67 35 be 45 1e 6d bd 30 8b b0 bf 7a fd d5 3d
       -0.17715314 -0.057890195 -1.3792477 0.104487374
000030 2b 1a 8b bc 6b e0 a4 be 76 1c 25 3e 23 4d 24 be
       -0.016980251 -0.32202467 0.16124138 -0.1604505
000040 84 b8 56 bc c7 02 12 bf 5f 76 da 3c c6 70 63 be
       -0.013105515 -0.5703549 0.026667772 -0.22210988
000050 fb 4c 3b be a2 d8 31 bf 20 44 18 bd 95 0f 46 3e
       -0.18291084 -0.6947118 -0.037174344 0.19341882
000060 0c ad 80 3e 03 04 97 be 0c c4 0d 3d fa 26 e4 3c
       0.25132024 -0.29495248 0.034610793 0.027850617
000070 a2 97 39 3e 26 e0 38 bf a7 02 f9 3d 82 59 dd be
       0.1812425 -0.72217023 0.12158709 -0.43232352
000080 24 99 35 39 60 08 ee be b5 c1 7e 3c 02 b4 92 be
       0.00017318554 -0.46490765 0.015549113 -0.2865296
000090 40 fc 84 bd f1 9c 92 be df b2 37 bf 5d cc 82 bd
       -0.06493425 -0.28635362 -0.7175731 -0.063866355
0000a0 f1 34 5c bf 36 27 21 3d a3 c0 0e 39 28 81 68 bc
       -0.8601828 0.039344035 0.00013613938 -0.0141909495
0000b0 3b f9 10 3e 96 83 80 3d fd 83 7a bf de 26 e3 bd
       0.14157574 0.06275098 -0.9785765 -0.11091398
0000c0 55 51 81 3e a5 80 94 be 2d 9d e9 3d 9a f7 c8 3e
       0.25257364 -0.29004398 0.11406932 0.39251405
0000d0 71 9a c1 be 61 6c 51 be 5b 14 80 be 12 84 0f bd
       -0.37813142 -0.204515 -0.2501553 -0.03503806
0000e0 18 30 32 bf 3a 55 02 bc d9 8a 84 be 6f bb e0 bd
       -0.69604635 -0.00795489 -0.25887182 -0.1097325
0000f0 12 94 ba be a0 09 9a bf 01 99 1a 3e fc b2 22 be
       -0.36441094 -1.2034187 0.15097429 -0.1588859
000100 37 35 84 be 07 86 a3 bc e3 9c 82 be 8a 54 93 3d
       -0.2582185 -0.01996137 -0.2551032 0.07193859
000110 2c 12 20 bc d7 50 0a 3e 31 ab 52 be 06 41 03 3c
       -0.0097699575 0.135074 -0.20573117 0.008011108
000120 71 96 bf 3d 4c f7 b4 bd fe 44 44 be 61 db 1a be
       0.09354866 -0.08836231 -0.19166943 -0.15122749
000130 86 b2 39 3d 30 8d df bd 10 09 a8 bd 3a 2b a3 be
       0.04533627 -0.10915601 -0.082048535 -0.31868917
000140 92 48 04 bf a4 30 2b be c5 0c a5 be 93 7e eb 3d
       -0.51673234 -0.16717774 -0.32236305 0.114987515
000150 dd 25 8b 3e 8b 96 be 3e 3b dc 87 3e e4 28 2c 3d
       0.27177325 0.3722423 0.2653521 0.042031184
000160 3d 47 3f 3c 9a dc e5 be ec b3 fd be 39 eb 39 be
       0.011674699 -0.44894868 -0.49551332 -0.18156137
000170 9e 7a 96 3e b8 fe 26 3d ec 29 09 be fd c5 c7 3e
       0.29390424 0.040770262 -0.13394898 0.3901824
000180 53 14 d2 be a2 56 84 be 67 24 3c 3e f0 59 4a 3e
       -0.4103113 -0.25847346 0.18373261 0.19760871
000190 86 f7 54 be 81 cd 5e 3e 1c 09 4b be 87 27 ad bd
       -0.20797548 0.21758081 -0.19827694 -0.08454805
0001a0 4a 86 05 3d 4b 03 4e be ca 30 7d be ed 51 84 3e
       0.03259877 -0.20118444 -0.24725643 0.25843754
0001b0 d6 5f cb be 12 9e c8 3c ca d4 21 3d 54 06 4a be
       -0.39721555 0.024489436 0.039509572 -0.19728976
0001c0 c1 bb 9f bd fa 37 02 bf a0 3c bc 3c 36 7a 0e 3d
       -0.07799483 -0.50866663 0.022978127 0.03478452
0001d0 eb 6a 99 be bc 66 44 3c 45 d2 b0 bb be 8b 0d be
       -0.29964384 0.011987384 -0.00539616 -0.13822839
0001e0 d6 e7 19 bb 5f 72 2e 3b 03 20 02 bf 78 e1 1d 3c
       -0.0023484132 0.0026618463 -0.50830096 0.0096362755
0001f0 25 60 f4 be 65 c2 7c be 95 24 52 bf 60 48 a2 3c
       -0.47729602 -0.2468353 -0.8208707 0.019809902
000200 66 4e c2 be ce ff 3d be ea 7d e2 be 0c 52 95 bc
       -0.37950438 -0.18554613 -0.4423669 -0.0182276
000210 8c 13 7d bd 65 db 4b be 58 a3 da be e0 ea de bc
       -0.06178622 -0.19907911 -0.42702746 -0.027211607
000220 a1 35 4c be 3c a7 12 bf 7a 94 17 bf b4 d4 08 3c
       -0.19942333 -0.5728643 -0.5921093 0.008351494
000230 7e cb 8e 3d f4 36 bd be 37 3b 65 3e d4 d7 06 be
       0.06972407 -0.36955988 0.2238587 -0.1316827
000240 1b 26 8f 3d 86 a4 99 3d 44 90 df be 3c c4 8f bd
       0.0698969 0.075020835 -0.43664753 -0.070198506
000250 8a de dc bc ac 62 21 3d 13 26 84 be c4 30 af be
       -0.026961584 0.03940074 -0.25810298 -0.34216893
000260 8a 28 56 3e 52 c9 15 3e 74 81 38 3e 1e ba 47 be
       0.20913902 0.14627579 0.18018132 -0.19504592
000270 cc 82 85 bd 98 7a 05 bf 1a 10 2f bf 56 28 a9 bd
       -0.06519088 -0.5214019 -0.68383944 -0.082596466
000280 c5 8f 55 bd cd 5f 2f 3d 9c 4a 0e bd 3f b1 a9 be
       -0.052139062 0.042815972 -0.03473912 -0.3314304
000290 df 4e 80 3c 2e 5d 32 bd 1e 53 8a be a5 f4 6e be
       0.015662609 -0.043545894 -0.27016538 -0.23335512
0002a0 ac 73 93 bc 59 78 4a bf f3 13 87 bd ef 8a ea be
       -0.017999493 -0.79089886 -0.06595602 -0.45809123
0002b0 b3 77 04 3e e5 63 93 be 73 33 36 bf f3 b6 8e 3d
       0.12936287 -0.2878715 -0.71172255 0.069684885
0002c0 63 0c 74 be 15 8e 6c be c0 51 d1 be fc 56 30 3e
       -0.2383285 -0.23101075 -0.40882683 0.17220682
0002d0 ec 83 2a be 8b b4 27 bc 29 eb 1c be 6a db 07 3d
       -0.16651887 -0.010235916 -0.15324081 0.033168234
0002e0 e6 71 07 bf b1 f7 e0 be 53 43 b5 bf 73 98 ec 3c
       -0.5290817 -0.43938974 -1.4161171 0.028881287
0002f0 65 1a f0 b8 23 32 17 3e bf 28 ed bd 33 b7 8d 3d
       -0.00011449008 0.1476522 -0.11580037 0.06919708
000300 29 72 f5 bd cb d5 a5 be f8 fa f9 be 17 b4 11 bf
       -0.11984665 -0.32389674 -0.48824286 -0.5691542
000310 46 e1 eb 3d 24 9f b5 bc 2f b1 ea bd 30 09 bb bc
       0.11517577 -0.02217061 -0.11459576 -0.02283153
000320 f3 e0 12 be c4 9e ab 3b 11 b7 7b be 32 48 19 bd
       -0.14343624 0.005237432 -0.24581553 -0.037422366
000330 42 0c 79 bf 6d 13 38 3d 80 5a ed be fa 59 51 3d
       -0.9728433 0.0449404 -0.4635811 0.0511112
000340 6e bc 02 3e 2b 1f 58 be f8 f2 02 bd 66 f5 db bd
       0.12767193 -0.2110564 -0.031969994 -0.107401654
000350 14 0c 9b bc 7d 26 b0 3e f9 ef 7f be dc ad 42 be
       -0.018926658 0.34404364 -0.24993886 -0.19011635
000360 19 bb da be d6 66 4d 3e f1 98 eb 3d ca a3 17 bf
       -0.4272087 0.2005876 0.11503781 -0.592343
000370 35 cf 34 be bb cd 62 be 55 9e 71 be d1 31 3e bf
       -0.17657168 -0.22148792 -0.23595555 -0.74294764
000380 da 4e 13 be b5 c5 9c be 88 31 8a bf e4 55 2e be
       -0.14385548 -0.30619588 -1.0796366 -0.17024952
000390 03 0e 16 bd 44 1d 87 3e 65 42 49 be c2 29 cb 3d
       -0.036634456 0.26389515 -0.19654234 0.09920074
0003a0 cb a3 eb bd 1b 47 ae be 28 a4 56 3e 17 d9 37 bd
       -0.115058504 -0.34038624 0.20961058 -0.044884767
0003b0 d1 cb bb 3d f5 9f 11 3d 7a 93 33 be 09 3e 88 3d
       0.09169734 0.035552938 -0.17536727 0.06652457
0003c0 34 a5 a5 be 6c 93 d6 be 06 46 00 3f e2 12 89 bc
       -0.32352602 -0.4190935 0.5010685 -0.016732637
0003d0 9b ff 80 bd 97 68 21 3c e1 99 01 be e8 0a dc be
       -0.06298753 0.009851596 -0.12656356 -0.4297707
0003e0 dc 5d 6d be c8 71 8b bc a9 99 34 3e ec 7d d5 be
       -0.23180336 -0.017022029 0.17636742 -0.41697633
0003f0 0f 90 1f bd 43 35 bf 3d 7a b1 e5 3d ca 32 a1 3d
       -0.038955744 0.09336331 0.112154916 0.07871015

fc3.bias f4 [256]
000000 b5 b2 34 bf 3d 08 09 3f 96 92 83 3d 60 dd af be
       -0.70585185 0.53528196 0.064244434 -0.34348583
000010 d0 cb 00 3e fb 24 c5 bd ce 92 a9 be 60 6d 8b 3e
       0.12577748 -0.09626194 -0.33119816 0.27231884
000020 60 b7 90 bf b7 41 a2 be 4c 8e 48 be 46 b8 a1 3e
       -1.1305962 -0.3169076 -0.19585532 0.31585902
000030 cf 33 ae bd 70 d0 0a bf 9e 14 8d 3c 0a 8f 90 3e
       -0.085059755 -0.542243 0.017221745 0.2823413
000040 9a 3a a7 be 0c cc 1d bf 92 a5 79 be bb f8 12 3f
       -0.32661897 -0.61639476 -0.24379566 0.5741078
000050 0f 3c b2 be f6 86 d2 be 13 6c 13 bf 9e f9 27 be
       -0.34811446 -0.41118592 -0.57586783 -0.16403815
000060 a4 48 17 bf 71 6b 51 bf 0b 25 8d bf 65 37 1b 3f
       -0.59095216 -0.8180457 -1.102693 0.606314
000070 68 ce c4 be ab 8f bd 3c 2c 8a 24 3e f7 19 00 bf
       -0.38438725 0.023139795 0.16068333 -0.5003962
000080 d3 82 65 3d f9 22 da be 68 14 a3 3e 03 dc a8 bd
       0.056032967 -0.42604807 0.31851506 -0.08245089
000090 4e 4e 30 be e7 42 eb 3d 63 f8 36 3c 6e 61 f0 bd
       -0.17217371 0.1148737 0.011167618 -0.11737333
0000a0 da c4 7b 3e 55 d1 d5 3e 19 25 45 be d9 d2 1a bf
       0.24586812 0.4176127 -0.19252433 -0.6047798
0000b0 c9 32 e4 be 4b 15 7b 3c a6 b2 cd bd 53 96 d9 be
       -0.44569996 0.015324901 -0.1004384 -0.424975
0000c0 ca 0f 01 be 8d 24 38 be 9f ae 48 be 40 a1 d3 3e
       -0.1260368 -0.17982693 -0.19597863 0.4133396
0000d0 bb 19 7f be 99 f5 03 be 2f 86 2b bf a5 1b 79 bc
       -0.24912159 -0.12886657 -0.6700162 -0.015204345
0000e0 1f 66 75 be 3e 02 6e be 37 65 72 be a6 21 aa be
       -0.23964737 -0.23243043 -0.23671423 -0.33228797
0000f0 8b 3c 8e be 05 1c 20 bf 95 0d f1 3d 5c 7d 1e 3c
       -0.27780566 -0.62542754 0.11770169 0.009673443
000100 09 bf e7 bd ec a9 42 3f 24 0a 59 3f 77 5f 8c bb
       -0.11315734 0.7604053 0.847811 -0.0042838412
000110 86 96 ce be 84 db 48 be 53 ba 9a 3e af 47 c6 3b
       -0.40349215 -0.19614989 0.3022028 0.006051026
000120 a0 12 74 be 8c 7b e5 3d 65 ed 10 bf 16 64 71 bf
       -0.2383523 0.11205205 -0.56612235 -0.94293344
000130 46 1d 76 3e 68 93 b9 bd 2b 04 95 3c 7c d8 2e bf
       0.24034604 -0.09061319 0.018190464 -0.6829908
000140 d4 1a 31 bf 4f 6c 05 bf 6f 98 a2 3d 8e 2e ca bd
       -0.6918156 -0.5211839 0.07939231 -0.09872161
000150 f6 a7 47 bd 6c aa 28 bf fe bc 81 3e 9c 53 c4 3e
       -0.048744164 -0.65885043 0.25339502 0.3834504
000160 f5 e4 25 bf ce 4e 4a 3e 59 89 aa 3c 54 c9 07 c0
       -0.64802486 0.19756624 0.020817446 -2.121663
000170 49 4a d7 be 47 5a 53 bf 57 86 ca bc 39 56 93 bd
       -0.42048863 -0.8255963 -0.024722261 -0.0719418
000180 cf 88 d8 3e 6e 18 bb be 8f f2 2a bf 65 e0 05 bd
       0.42291877 -0.36542076 -0.66776365 -0.032684702
000190 ea 6e 04 3e 37 1c 17 3e d9 12 36 be a5 55 16 bf
       0.12932935 0.14756857 -0.17780627 -0.58724433
0001a0 6f 89 8a 3e 2d 09 5e be bb 5b 4a 3d 27 70 ac 3e
       0.2705798 -0.21683188 0.049403887 0.33679315
0001b0 d7 75 47 bf 00 e3 ce be 14 82 ff bd c2 22 8c bf
       -0.77914184 -0.40407562 -0.12475982 -1.0948107
0001c0 80 a3 68 bf e8 0d 4b 3d b5 a8 ca bd a2 70 2b 40
       -0.9087448 0.04957381 -0.098954596 2.6787496
0001d0 86 ce 1e 3f 96 0d 03 3e 0f 3b 66 be 26 a0 24 ba
       0.6203388 0.12798151 -0.22483467 -0.00062799675
0001e0 03 fc d6 bd f7 54 40 3e 9c 89 ec 3e ba 1f 3f 3e
       -0.10497286 0.18782412 0.46198738 0.18664446
0001f0 59 5f 66 bf 8c a8 4e be a9 8b f5 be de a0 6c bd
       -0.8998924 -0.20181483 -0.47958115 -0.057770602
000200 1d ea 8a bf a5 11 7e bd c0 99 2f 3f a5 5e 86 3e
       -1.0852696 -0.062028546 0.6859398 0.26244083
000210 ff f9 1a bf a8 ed 59 bf 56 89 67 3e 7b 4c 0b bf
       -0.60537714 -0.8512826 0.22610983 -0.54413575
000220 a9 e5 99 be 3c 56 45 bf 64 6c 1f bf 1b e5 30 be
       -0.3005803 -0.7708471 -0.62274766 -0.17274897
000230 89 43 b1 be 79 9f dd be d6 12 8f be f2 40 b8 3e
       -0.34621838 -0.4328573 -0.27944058 0.3598705
000240 51 20 9e bd 00 93 05 3e d9 fb 77 bf 15 13 8f 3e
       -0.077210076 0.13044357 -0.96868664 0.27944246
000250 02 a2 21 be 7b 77 95 3e db df 38 3d c9 9f 0b 3e
       -0.15784457 0.2919272 0.04513536 0.13635172
000260 8c b2 c0 be 32 c4 c9 be ae 49 28 be bb 8f 18 bf
       -0.3763622 -0.39407498 -0.16434357 -0.59594315
000270 bb c7 df be b4 89 1d be 05 2d a3 be e3 29 fb 3e
       -0.4370707 -0.15384561 -0.31870285 0.49055395
000280 07 31 c7 3e 0c d7 d3 be d2 7d 15 be b0 a1 28 3e
       0.38904592 -0.41375005 -0.14598778 0.16467929
000290 a0 b6 d1 3e a5 28 8e be 73 61 b7 3d 73 e7 17 3e
       0.40959644 -0.27765384 0.08954134 0.14834385
0002a0 de 69 06 bf 31 bf e2 3c 3a 17 bf be bb f0 28 3f
       -0.5250529 0.027679058 -0.37322408 0.65992326
0002b0 86 f4 81 3f 07 55 e7 be 2e 86 df bb 9d 2e 83 be
       1.0152748 -0.45182058 -0.0068214154 -0.256215
0002c0 6d eb 87 3e 04 48 44 3e 3c 81 b2 be 3c 74 8b bf
       0.26546803 0.19168097 -0.34864223 -1.0894847
0002d0 8e e1 c9 be 54 2b 32 3d a5 09 a2 3d 7d 91 10 3e
       -0.39429897 0.043498352 0.07911996 0.14118
0002e0 39 20 08 3f ab 0b 93 be 10 85 aa be 7a b5 38 be
       0.5317417 -0.2871984 -0.33304644 -0.18037978
0002f0 77 77 87 be 23 94 01 bf 9e 07 ba be 6f f8 30 bf
       -0.26458332 -0.50616664 -0.36333936 -0.6912908
000300 43 60 d3 bd d5 c3 4c 3e 4a 40 b4 bc 84 f0 d7 3e
       -0.10321095 0.19996579 -0.022003312 0.42175686
000310 bf db e9 be 08 13 dd bc 22 5f cc be bf 96 8f bd
       -0.45675465 -0.026986614 -0.3991633 -0.070111744
000320 ca 6b 55 bf 19 b5 b9 bd 4c 2c 83 be 5f 42 96 3d
       -0.833676 -0.09067745 -0.25619733 0.07336878
000330 3a 6e 8b bb 04 1b 02 be 80 e7 a2 be 8f 9e b1 be
       -0.0042550834 -0.12705618 -0.31817245 -0.34691283
000340 a3 4a 2d 3d df 0d d4 3e 8b 98 9a be a8 ed a8 bd
       0.042307507 0.41416833 -0.30194506 -0.08248454
000350 d3 a6 a3 bc ae 4d bd be 18 c3 18 bf 9f f3 34 be
       -0.019977009 -0.36973327 -0.5967269 -0.17671059
000360 ec 47 30 3e 94 7c 02 bf 1f 73 a1 bd cc 30 77 be
       0.17214936 -0.5097134 -0.07883286 -0.24139708
000370 64 89 e3 3e b3 11 9a 3e 12 fa a9 bd d2 a6 1f bf
       0.44440758 0.30091628 -0.0829965 -0.6236392
000380 2d 07 89 3d aa 36 69 be 20 8a 4a be 78 1a 52 be
       0.06690822 -0.22774759 -0.19779253 -0.2051791
000390 9b cf 04 3f b6 92 6d bf 6e 59 6e be 10 2d 69 bd
       0.5187928 -0.9280199 -0.23276302 -0.05692774
0003a0 4d 95 e2 bd 4f d5 08 be 6d b8 6f bd 6d 20 4d bd
       -0.11063633 -0.13362621 -0.05852549 -0.05007975
0003b0 aa 5a 74 bd 0b 4e bd be 63 e4 6a be 25 f1 89 be
       -0.059656776 -0.36973605 -0.22938685 -0.2694179
0003c0 53 19 67 bd 75 ac 29 3e 3d 46 8b bf 02 38 fd be
       -0.056420635 0.16569693 -1.088081 -0.49456793
0003d0 80 36 8c 3d e0 ce 7c bf 4d 19 0b bf 17 bf 92 be
       0.068463326 -0.98753166 -0.5433548 -0.28661415
0003e0 6e e6 be 3e 59 6f 66 3e 4a 55 ed bd 71 96 2b 3d
       0.3728518 0.22503413 -0.11588533 0.04189152
0003f0 74 36 3e be d5 60 19 bf 0d db 7d 3d 5c fc 91 be
       -0.1857546 -0.5991338 0.06197648 -0.28512847

output.weight f4 [4, 256]
000000 c0 a3 87 bd 46 f3 af b9 02 d8 37 3c 22 9b 1e bd
       -0.0662303 -0.00033559854 0.011220934 -0.038722165
000010 de 4d a3 bd 89 b6 d8 3c eb 1a e7 bc 2f 16 8f bd
       -0.07973836 0.026454227 -0.028211078 -0.06986653
000020 02 7f 81 3c 3c 6c f3 39 af 4f 85 bd 23 e7 6b bd
       0.015807632 0.00046429213 -0.06509339 -0.057593476
000030 fa d0 ab bc 4e 02 cf 3b a8 c2 35 3c 07 8b ca 3c
       -0.020973671 0.0063174134 0.011093773 0.024724497
000040 d4 fb e7 3c 44 a1 dc 3b 04 50 ec bc c6 b4 eb 3b
       0.028318323 0.0067330915 -0.028846748 0.0071931807
000050 04 8c eb bb 02 b1 8f bd 14 e1 29 3c 5a c8 d5 3a
       -0.007188322 -0.070161834 0.010368604 0.001631032
000060 0e b0 10 bc 50 94 8b 3c fb d8 96 3d 40 34 ea 3c
       -0.008831037 0.017038494 0.073656045 0.028589368
000070 5c 06 31 bc e7 f7 ac bc 06 b6 73 bc ae f0 8d bb
       -0.010804739 -0.021114303 -0.014874941 -0.00433167
000080 ad 59 0b bc bf a7 9f bb 67 77 31 bd 17 1e 3e 3c
       -0.008505267 -0.004872292 -0.04332676 0.011603854
000090 c1 c2 a7 3b 8d 6a 92 bc 96 51 0f bd 5b 6e 93 bd
       0.005119652 -0.017873073 -0.034989916 -0.07198783
0000a0 cc b8 08 3d 5b 78 0a 3c b4 7f 02 3d e2 d4 63 3d
       0.03337936 0.008451547 0.03186007 0.055622943
0000b0 f3 33 02 bd f4 d9 3b bc 16 a2 50 bd d5 7f ac bc
       -0.031787824 -0.011465538 -0.050935827 -0.021057049
0000c0 cd 72 19 bc 05 f4 20 3c f5 2d 5d 3b 18 07 05 3d
       -0.00936575 0.009823804 0.0033749316 0.03247747
0000d0 97 7e 39 bc 96 33 22 3c ab 0a 64 bc 6e d8 55 b9
       -0.011321685 0.009899994 -0.013918559 -0.0002039389
0000e0 21 68 ae bc d3 d3 11 bc a2 82 38 3b cc ae eb 3c
       -0.021289887 -0.0089006005 0.0028154035 0.028769873
0000f0 67 67 fd ba b4 36 5a bb 7b 27 45 bd f0 bd 2c bc
       -0.0019333184 -0.0033296766 -0.048133355 -0.0105433315
000100 8f 11 15 bb 13 07 1d bb e7 16 b0 bc 89 7b 34 3c
       -0.0022746061 -0.0023960515 -0.021495296 0.011015781
000110 fa 2b 60 bb c2 dc 83 bc 66 04 c1 3b 92 27 0d 3a
       -0.00342059 -0.016096476 0.005890417 0.00053846196
000120 0f 7f 3e 3d 18 12 31 3c a0 7e ff bb e0 67 58 bc
       0.04650789 0.010807537 -0.0077970773 -0.0132083595
000130 c6 7e 41 3c 18 e6 0b 3c 78 92 3f bd 1a 8a 54 bd
       0.01181001 0.008538745 -0.046770543 -0.051889516
000140 30 bc 08 3d 03 36 a6 bc 82 ba 08 3c c5 93 1b bc
       0.033382595 -0.020289427 0.008345248 -0.00949568
000150 d1 b7 05 3d 38 c6 b1 bd 91 ed 26 3d 68 58 18 3b
       0.032646004 -0.08680385 0.040753905 0.0023246054
000160 0e a8 9d 3c 48 db 4e bc a2 e4 35 bc 05 1a 44 3c
       0.019245174 -0.012625523 -0.011101874 0.011969094
000170 07 90 81 bc 58 3e 45 bb 7b 6c 57 bd 3d 89 81 bc
       -0.015815748 -0.0030096974 -0.05259369 -0.01581251
000180 d9 3f 4b bd a0 89 2c bc 84 b9 5c bd 1e f0 c3 bc
       -0.049621437 -0.010530859 -0.05388786 -0.023918208
000190 15 15 03 3c ce b5 85 3c 2f 59 0c 3b dc a3 2c bb
       0.008000632 0.016322043 0.0021415462 -0.0026342785
0001a0 7a 3d a8 3c 1e 4f 57 3c bd e1 9a 3a 44 10 fc bc
       0.020537127 0.013141422 0.0011816543 -0.030769475
0001b0 97 cb 01 bc 36 cd 89 3d 21 b9 4f 3b 88 26 d0 3b
       -0.007922075 0.06728594 0.0031696039 0.0063522495
0001c0 49 f7 4f 3c 40 e0 bc 3c 7a df 0f 3c 44 cc bc bb
       0.012693235 0.02305615 0.008781308 -0.005761655
0001d0 a3 82 41 bb 8a 64 51 3c f4 a0 f7 bc b3 b8 2a ba
       -0.0029527328 0.012780318 -0.030228116 -0.00065125077
0001e0 df 1f f4 bb bc 95 76 3c 86 6d a7 3d dc c7 bb 3c
       -0.0074500884 0.015050348 0.08175187 0.022922449
0001f0 1c 38 f5 bb 70 fe 22 3c e2 21 a2 3c 35 50 4f 3c
       -0.0074834954 0.009948358 0.019791547 0.0126534
000200 22 17 99 3b 6a 95 b1 bd b1 19 f8 3c 54 07 19 bc
       0.004671947 -0.086710766 0.030285688 -0.009340126
000210 25 87 c5 3c 0d 35 82 bb 66 9d 72 bb e1 71 4f bc
       0.024112293 -0.0039736093 -0.0037020086 -0.012661428
000220 68 66 d2 3c 6a db eb 3b df 53 be 3d 18 ec 21 3d
       0.025683597 0.007197787 0.09293341 0.039531797
000230 6d 0b 20 bd a0 fa a4 bc b8 b6 c2 3c 52 a6 b2 bc
       -0.039073396 -0.020139039 0.023768768 -0.021807823
000240 4d 6f c0 b9 93 0d 3d bd 06 e2 21 b9 22 49 ef bc
       -0.0003670402 -0.046155524 -0.00015438357 -0.029209677
000250 83 f3 2f ba 59 98 40 bb 5d a1 11 3c 53 78 9e 3c
       -0.0006712006 -0.0029387681 0.00888857 0.019344484
000260 d1 94 50 3c 12 59 1b 3a 64 26 8d 3a 2c 16 07 3d
       0.012730793 0.0005926053 0.0010768888 0.03298013
000270 64 3b d6 bb 40 70 23 bc 82 66 06 bc 5a 17 d7 3b
       -0.0065378416 -0.009975493 -0.008203151 0.006564063
000280 97 9f 3e bc 4b 0a 77 ba bc 7a c0 3b f2 57 f9 bc
       -0.011634729 -0.0009423836 0.005874006 -0.030437443
000290 5f 9f 20 bc 31 ed 9c ba 28 6c 0c bd e2 69 f2 3c
       -0.009803622 -0.0011972544 -0.034282833 0.029591504
0002a0 01 c2 b6 bb a5 9e 3a 3c a9 91 c5 3c 25 41 2e bb
       -0.0055773263 0.011390363 0.024117308 -0.0026589122
0002b0 fb 41 2e 3d b4 56 15 3d a4 72 f7 3c f1 1a cd 3b
       0.042543393 0.03645964 0.030206032 0.006259315
0002c0 53 8a b2 3b ca b5 ad ba 99 e1 4c bd 59 be ee 3c
       0.0054486184 -0.001325303 -0.050019834 0.0291435
0002d0 89 14 b5 bc 34 dc 0b 3d 88 67 39 bc 7a 4e e4 b9
       -0.022104518 0.03414555 -0.011316188 -0.00043546018
0002e0 6c f3 d3 3c 39 3f 17 3c c4 7d c6 3c 64 5e 9a bb
       0.025872909 0.009231382 0.024229892 -0.0047109593
0002f0 1b a3 b2 3c f2 9d 7d bd b0 40 0e bb 5f 0b a4 3c
       0.02180629 -0.061918207 -0.0021706037 0.020024953
000300 bd a8 ec bb 48 71 de bb 5a be 8b bc 3b c7 49 ba
       -0.0072222636 -0.0067884065 -0.01705854 -0.0007697229
000310 fe 82 66 3d 6b 01 c5 bc 09 4e 99 3c e8 bd 96 bb
       0.056277268 -0.024048528 0.018713968 -0.0046002753
000320 32 a3 9b bb 4a f1 f0 3b 5b 37 00 bd a1 fb 43 3d
       -0.004749679 0.0073529826 -0.03130279 0.047847394
000330 d2 f6 75 bc 77 b9 1b bb 67 fb a6 bc 44 23 94 3c
       -0.01501246 -0.0023761669 -0.02038355 0.018083222
000340 06 84 cf bc a6 b1 85 3a 0b e5 c0 bc db 62 38 bc
       -0.025331508 0.0010200038 -0.023546716 -0.011254038
000350 b2 79 09 bc 66 95 14 3c 4d 60 4d 3c 5f 73 a5 bc
       -0.008390831 0.0090688225 0.012535167 -0.020196615
000360 22 72 1a 3d 2d 6a e6 bd 98 d2 a6 3d 25 f7 df bc
       0.0377065 -0.1125072 0.08145636 -0.027339527
000370 91 95 9f 3a bb 8e 0d bc 78 47 0f 3c 39 db 57 3b
       0.0012175312 -0.008639987 0.008745067 0.0032937063
000380 3e 2e ef bc cd 5d 5c bc 81 0e 11 bd 39 0a b2 bc
       -0.029196855 -0.013450098 -0.035414223 -0.02173339
000390 d6 42 64 3b 16 6e 64 bb fb 23 06 bc 51 87 ef 3b
       0.0034829876 -0.0034855655 -0.008187289 0.007309832
0003a0 de 8c e2 bb b4 b5 d0 bc 07 4c 06 3c 48 40 de 3c
       -0.0069137653 -0.025477268 0.008196837 0.027130261
0003b0 45 e8 82 bd ff d3 d0 3b e7 27 a2 3c 78 c6 59 3a
       -0.06391958 0.006372928 0.019794418 0.0008307467
0003c0 be f1 ac bc 7e 4c 45 bd 23 f1 6b bc fe 29 2f 3c
       -0.021111365 -0.04816865 -0.014400753 0.010691164
0003d0 7c fb 84 bc 44 25 b8 bb 55 87 c8 3c 23 38 f0 3c
       -0.016233198 -0.005619677 0.024478594 0.029323643
0003e0 1c fa dd 3c 78 55 a8 bc 00 42 dc 3c 64 40 e0 3c
       0.0270968 -0.020548567 0.02688694 0.027374454
0003f0 ed 7b b3 bc f9 33 8c 3c 54 67 93 bc 38 ad aa 38
       -0.021909678 0.017114626 -0.017993607 8.138496e-05

output.bias f4 [4]
000000 3d ea 03 3d 8f 39 72 bf 20 d2 f3 be d7 24 ef bd
       0.03220581 -0.9461908 -0.4762125 -0.116769485
